…
Please report this to the TensorFlow team. When filing the bug, set the verbosity to 10 (on Linux, `export AUTOGRAPH_VERBOSITY=10`) and attach the full output.
Cause: module 'gast' has no attribute 'Index'
To silence this warning, decorate the function with @tf.autograph.experimental.do_not_convert
MODEL NAME = step1_really_basic
Model: "model"
__________________________________________________________________________________________________
Layer (type)                    Output Shape         Param #     Connected to                     
==================================================================================================
input_1 (InputLayer)            [(None, 224, 224, 3) 0                                            
__________________________________________________________________________________________________
tf.math.truediv (TFOpLambda)    (None, 224, 224, 3)  0           input_1[0][0]                    
__________________________________________________________________________________________________
tf.math.subtract (TFOpLambda)   (None, 224, 224, 3)  0           tf.math.truediv[0][0]            
__________________________________________________________________________________________________
conv2d (Conv2D)                 (None, 112, 112, 12) 336         tf.math.subtract[0][0]           
__________________________________________________________________________________________________
batch_normalization (BatchNorma (None, 112, 112, 12) 48          conv2d[0][0]                     
__________________________________________________________________________________________________
conv2d_1 (Conv2D)               (None, 56, 56, 24)   2616        batch_normalization[0][0]        
__________________________________________________________________________________________________
batch_normalization_1 (BatchNor (None, 56, 56, 24)   96          conv2d_1[0][0]                   
__________________________________________________________________________________________________
conv2d_2 (Conv2D)               (None, 28, 28, 48)   10416       batch_normalization_1[0][0]      
__________________________________________________________________________________________________
batch_normalization_2 (BatchNor (None, 28, 28, 48)   192         conv2d_2[0][0]                   
__________________________________________________________________________________________________
conv2d_3 (Conv2D)               (None, 14, 14, 96)   41568       batch_normalization_2[0][0]      
__________________________________________________________________________________________________
batch_normalization_3 (BatchNor (None, 14, 14, 96)   384         conv2d_3[0][0]                   
__________________________________________________________________________________________________
conv2d_4 (Conv2D)               (None, 7, 7, 128)    110720      batch_normalization_3[0][0]      
__________________________________________________________________________________________________
batch_normalization_4 (BatchNor (None, 7, 7, 128)    512         conv2d_4[0][0]                   
__________________________________________________________________________________________________
flatten (Flatten)               (None, 6272)         0           batch_normalization_4[0][0]      
__________________________________________________________________________________________________
dense (Dense)                   (None, 500)          3136500     flatten[0][0]                    
__________________________________________________________________________________________________
batch_normalization_5 (BatchNor (None, 500)          2000        dense[0][0]                      
__________________________________________________________________________________________________
presence (Dense)                (None, 1)            501         batch_normalization_5[0][0]      
__________________________________________________________________________________________________
coordinates (Dense)             (None, 4)            2004        batch_normalization_5[0][0]      
==================================================================================================
Total params: 3,307,893
Trainable params: 3,306,277
Non-trainable params: 1,616
__________________________________________________________________________________________________
Epoch 1/10
100/100 - 841s - loss: 2.2999 - presence_loss: 0.6425 - coordinates_loss: 1.6574 - presence_accuracy: 0.6391
…
