…
Please report this to the TensorFlow team. When filing the bug, set the verbosity to 10 (on Linux, `export AUTOGRAPH_VERBOSITY=10`) and attach the full output.
Cause: module 'gast' has no attribute 'Index'
To silence this warning, decorate the function with @tf.autograph.experimental.do_not_convert
MODEL NAME = step1_mobilenetGAP_2
Model: "model"
__________________________________________________________________________________________________
Layer (type)                    Output Shape         Param #     Connected to                     
==================================================================================================
input_1 (InputLayer)            [(None, 224, 224, 3) 0                                            
__________________________________________________________________________________________________
tf.math.truediv (TFOpLambda)    (None, 224, 224, 3)  0           input_1[0][0]                    
__________________________________________________________________________________________________
tf.math.subtract (TFOpLambda)   (None, 224, 224, 3)  0           tf.math.truediv[0][0]            
__________________________________________________________________________________________________
conv2d (Conv2D)                 (None, 112, 112, 32) 864         tf.math.subtract[0][0]           
__________________________________________________________________________________________________
batch_normalization (BatchNorma (None, 112, 112, 32) 128         conv2d[0][0]                     
__________________________________________________________________________________________________
re_lu (ReLU)                    (None, 112, 112, 32) 0           batch_normalization[0][0]        
__________________________________________________________________________________________________
conv2d_1 (Conv2D)               (None, 112, 112, 16) 512         re_lu[0][0]                      
__________________________________________________________________________________________________
batch_normalization_1 (BatchNor (None, 112, 112, 16) 64          conv2d_1[0][0]                   
__________________________________________________________________________________________________
re_lu_1 (ReLU)                  (None, 112, 112, 16) 0           batch_normalization_1[0][0]      
__________________________________________________________________________________________________
depthwise_conv2d (DepthwiseConv (None, 112, 112, 16) 144         re_lu_1[0][0]                    
__________________________________________________________________________________________________
batch_normalization_2 (BatchNor (None, 112, 112, 16) 64          depthwise_conv2d[0][0]           
__________________________________________________________________________________________________
re_lu_2 (ReLU)                  (None, 112, 112, 16) 0           batch_normalization_2[0][0]      
__________________________________________________________________________________________________
conv2d_2 (Conv2D)               (None, 112, 112, 16) 256         re_lu_2[0][0]                    
__________________________________________________________________________________________________
batch_normalization_3 (BatchNor (None, 112, 112, 16) 64          conv2d_2[0][0]                   
__________________________________________________________________________________________________
conv2d_3 (Conv2D)               (None, 112, 112, 192 3072        batch_normalization_3[0][0]      
__________________________________________________________________________________________________
batch_normalization_4 (BatchNor (None, 112, 112, 192 768         conv2d_3[0][0]                   
__________________________________________________________________________________________________
re_lu_3 (ReLU)                  (None, 112, 112, 192 0           batch_normalization_4[0][0]      
__________________________________________________________________________________________________
depthwise_conv2d_1 (DepthwiseCo (None, 56, 56, 192)  1728        re_lu_3[0][0]                    
__________________________________________________________________________________________________
batch_normalization_5 (BatchNor (None, 56, 56, 192)  768         depthwise_conv2d_1[0][0]         
__________________________________________________________________________________________________
re_lu_4 (ReLU)                  (None, 56, 56, 192)  0           batch_normalization_5[0][0]      
__________________________________________________________________________________________________
conv2d_4 (Conv2D)               (None, 56, 56, 32)   6144        re_lu_4[0][0]                    
__________________________________________________________________________________________________
batch_normalization_6 (BatchNor (None, 56, 56, 32)   128         conv2d_4[0][0]                   
__________________________________________________________________________________________________
conv2d_5 (Conv2D)               (None, 56, 56, 192)  6144        batch_normalization_6[0][0]      
__________________________________________________________________________________________________
batch_normalization_7 (BatchNor (None, 56, 56, 192)  768         conv2d_5[0][0]                   
__________________________________________________________________________________________________
re_lu_5 (ReLU)                  (None, 56, 56, 192)  0           batch_normalization_7[0][0]      
__________________________________________________________________________________________________
depthwise_conv2d_2 (DepthwiseCo (None, 56, 56, 192)  1728        re_lu_5[0][0]                    
__________________________________________________________________________________________________
batch_normalization_8 (BatchNor (None, 56, 56, 192)  768         depthwise_conv2d_2[0][0]         
__________________________________________________________________________________________________
re_lu_6 (ReLU)                  (None, 56, 56, 192)  0           batch_normalization_8[0][0]      
__________________________________________________________________________________________________
conv2d_6 (Conv2D)               (None, 56, 56, 32)   6144        re_lu_6[0][0]                    
__________________________________________________________________________________________________
batch_normalization_9 (BatchNor (None, 56, 56, 32)   128         conv2d_6[0][0]                   
__________________________________________________________________________________________________
add (Add)                       (None, 56, 56, 32)   0           batch_normalization_6[0][0]      
                                                                 batch_normalization_9[0][0]      
__________________________________________________________________________________________________
conv2d_7 (Conv2D)               (None, 56, 56, 384)  12288       add[0][0]                        
__________________________________________________________________________________________________
batch_normalization_10 (BatchNo (None, 56, 56, 384)  1536        conv2d_7[0][0]                   
__________________________________________________________________________________________________
re_lu_7 (ReLU)                  (None, 56, 56, 384)  0           batch_normalization_10[0][0]     
__________________________________________________________________________________________________
depthwise_conv2d_3 (DepthwiseCo (None, 28, 28, 384)  3456        re_lu_7[0][0]                    
__________________________________________________________________________________________________
batch_normalization_11 (BatchNo (None, 28, 28, 384)  1536        depthwise_conv2d_3[0][0]         
__________________________________________________________________________________________________
re_lu_8 (ReLU)                  (None, 28, 28, 384)  0           batch_normalization_11[0][0]     
__________________________________________________________________________________________________
conv2d_8 (Conv2D)               (None, 28, 28, 64)   24576       re_lu_8[0][0]                    
__________________________________________________________________________________________________
batch_normalization_12 (BatchNo (None, 28, 28, 64)   256         conv2d_8[0][0]                   
__________________________________________________________________________________________________
conv2d_9 (Conv2D)               (None, 28, 28, 384)  24576       batch_normalization_12[0][0]     
__________________________________________________________________________________________________
batch_normalization_13 (BatchNo (None, 28, 28, 384)  1536        conv2d_9[0][0]                   
__________________________________________________________________________________________________
re_lu_9 (ReLU)                  (None, 28, 28, 384)  0           batch_normalization_13[0][0]     
__________________________________________________________________________________________________
depthwise_conv2d_4 (DepthwiseCo (None, 28, 28, 384)  3456        re_lu_9[0][0]                    
__________________________________________________________________________________________________
batch_normalization_14 (BatchNo (None, 28, 28, 384)  1536        depthwise_conv2d_4[0][0]         
__________________________________________________________________________________________________
re_lu_10 (ReLU)                 (None, 28, 28, 384)  0           batch_normalization_14[0][0]     
__________________________________________________________________________________________________
conv2d_10 (Conv2D)              (None, 28, 28, 64)   24576       re_lu_10[0][0]                   
__________________________________________________________________________________________________
batch_normalization_15 (BatchNo (None, 28, 28, 64)   256         conv2d_10[0][0]                  
__________________________________________________________________________________________________
add_1 (Add)                     (None, 28, 28, 64)   0           batch_normalization_12[0][0]     
                                                                 batch_normalization_15[0][0]     
__________________________________________________________________________________________________
conv2d_11 (Conv2D)              (None, 28, 28, 384)  24576       add_1[0][0]                      
__________________________________________________________________________________________________
batch_normalization_16 (BatchNo (None, 28, 28, 384)  1536        conv2d_11[0][0]                  
__________________________________________________________________________________________________
re_lu_11 (ReLU)                 (None, 28, 28, 384)  0           batch_normalization_16[0][0]     
__________________________________________________________________________________________________
depthwise_conv2d_5 (DepthwiseCo (None, 28, 28, 384)  3456        re_lu_11[0][0]                   
__________________________________________________________________________________________________
batch_normalization_17 (BatchNo (None, 28, 28, 384)  1536        depthwise_conv2d_5[0][0]         
__________________________________________________________________________________________________
re_lu_12 (ReLU)                 (None, 28, 28, 384)  0           batch_normalization_17[0][0]     
__________________________________________________________________________________________________
conv2d_12 (Conv2D)              (None, 28, 28, 64)   24576       re_lu_12[0][0]                   
__________________________________________________________________________________________________
batch_normalization_18 (BatchNo (None, 28, 28, 64)   256         conv2d_12[0][0]                  
__________________________________________________________________________________________________
add_2 (Add)                     (None, 28, 28, 64)   0           add_1[0][0]                      
                                                                 batch_normalization_18[0][0]     
__________________________________________________________________________________________________
conv2d_13 (Conv2D)              (None, 28, 28, 768)  49152       add_2[0][0]                      
__________________________________________________________________________________________________
batch_normalization_19 (BatchNo (None, 28, 28, 768)  3072        conv2d_13[0][0]                  
__________________________________________________________________________________________________
re_lu_13 (ReLU)                 (None, 28, 28, 768)  0           batch_normalization_19[0][0]     
__________________________________________________________________________________________________
depthwise_conv2d_6 (DepthwiseCo (None, 14, 14, 768)  6912        re_lu_13[0][0]                   
__________________________________________________________________________________________________
batch_normalization_20 (BatchNo (None, 14, 14, 768)  3072        depthwise_conv2d_6[0][0]         
__________________________________________________________________________________________________
re_lu_14 (ReLU)                 (None, 14, 14, 768)  0           batch_normalization_20[0][0]     
__________________________________________________________________________________________________
conv2d_14 (Conv2D)              (None, 14, 14, 128)  98304       re_lu_14[0][0]                   
__________________________________________________________________________________________________
batch_normalization_21 (BatchNo (None, 14, 14, 128)  512         conv2d_14[0][0]                  
__________________________________________________________________________________________________
conv2d_15 (Conv2D)              (None, 14, 14, 768)  98304       batch_normalization_21[0][0]     
__________________________________________________________________________________________________
batch_normalization_22 (BatchNo (None, 14, 14, 768)  3072        conv2d_15[0][0]                  
__________________________________________________________________________________________________
re_lu_15 (ReLU)                 (None, 14, 14, 768)  0           batch_normalization_22[0][0]     
__________________________________________________________________________________________________
depthwise_conv2d_7 (DepthwiseCo (None, 14, 14, 768)  6912        re_lu_15[0][0]                   
__________________________________________________________________________________________________
batch_normalization_23 (BatchNo (None, 14, 14, 768)  3072        depthwise_conv2d_7[0][0]         
__________________________________________________________________________________________________
re_lu_16 (ReLU)                 (None, 14, 14, 768)  0           batch_normalization_23[0][0]     
__________________________________________________________________________________________________
conv2d_16 (Conv2D)              (None, 14, 14, 128)  98304       re_lu_16[0][0]                   
__________________________________________________________________________________________________
batch_normalization_24 (BatchNo (None, 14, 14, 128)  512         conv2d_16[0][0]                  
__________________________________________________________________________________________________
add_3 (Add)                     (None, 14, 14, 128)  0           batch_normalization_21[0][0]     
                                                                 batch_normalization_24[0][0]     
__________________________________________________________________________________________________
conv2d_17 (Conv2D)              (None, 14, 14, 768)  98304       add_3[0][0]                      
__________________________________________________________________________________________________
batch_normalization_25 (BatchNo (None, 14, 14, 768)  3072        conv2d_17[0][0]                  
__________________________________________________________________________________________________
re_lu_17 (ReLU)                 (None, 14, 14, 768)  0           batch_normalization_25[0][0]     
__________________________________________________________________________________________________
depthwise_conv2d_8 (DepthwiseCo (None, 14, 14, 768)  6912        re_lu_17[0][0]                   
__________________________________________________________________________________________________
batch_normalization_26 (BatchNo (None, 14, 14, 768)  3072        depthwise_conv2d_8[0][0]         
__________________________________________________________________________________________________
re_lu_18 (ReLU)                 (None, 14, 14, 768)  0           batch_normalization_26[0][0]     
__________________________________________________________________________________________________
conv2d_18 (Conv2D)              (None, 14, 14, 128)  98304       re_lu_18[0][0]                   
__________________________________________________________________________________________________
batch_normalization_27 (BatchNo (None, 14, 14, 128)  512         conv2d_18[0][0]                  
__________________________________________________________________________________________________
add_4 (Add)                     (None, 14, 14, 128)  0           add_3[0][0]                      
                                                                 batch_normalization_27[0][0]     
__________________________________________________________________________________________________
conv2d_19 (Conv2D)              (None, 14, 14, 1536) 196608      add_4[0][0]                      
__________________________________________________________________________________________________
batch_normalization_28 (BatchNo (None, 14, 14, 1536) 6144        conv2d_19[0][0]                  
__________________________________________________________________________________________________
re_lu_19 (ReLU)                 (None, 14, 14, 1536) 0           batch_normalization_28[0][0]     
__________________________________________________________________________________________________
depthwise_conv2d_9 (DepthwiseCo (None, 7, 7, 1536)   13824       re_lu_19[0][0]                   
__________________________________________________________________________________________________
batch_normalization_29 (BatchNo (None, 7, 7, 1536)   6144        depthwise_conv2d_9[0][0]         
__________________________________________________________________________________________________
re_lu_20 (ReLU)                 (None, 7, 7, 1536)   0           batch_normalization_29[0][0]     
__________________________________________________________________________________________________
conv2d_20 (Conv2D)              (None, 7, 7, 256)    393216      re_lu_20[0][0]                   
__________________________________________________________________________________________________
batch_normalization_30 (BatchNo (None, 7, 7, 256)    1024        conv2d_20[0][0]                  
__________________________________________________________________________________________________
conv2d_21 (Conv2D)              (None, 7, 7, 1536)   393216      batch_normalization_30[0][0]     
__________________________________________________________________________________________________
batch_normalization_31 (BatchNo (None, 7, 7, 1536)   6144        conv2d_21[0][0]                  
__________________________________________________________________________________________________
re_lu_21 (ReLU)                 (None, 7, 7, 1536)   0           batch_normalization_31[0][0]     
__________________________________________________________________________________________________
depthwise_conv2d_10 (DepthwiseC (None, 7, 7, 1536)   13824       re_lu_21[0][0]                   
__________________________________________________________________________________________________
batch_normalization_32 (BatchNo (None, 7, 7, 1536)   6144        depthwise_conv2d_10[0][0]        
__________________________________________________________________________________________________
re_lu_22 (ReLU)                 (None, 7, 7, 1536)   0           batch_normalization_32[0][0]     
__________________________________________________________________________________________________
conv2d_22 (Conv2D)              (None, 7, 7, 256)    393216      re_lu_22[0][0]                   
__________________________________________________________________________________________________
batch_normalization_33 (BatchNo (None, 7, 7, 256)    1024        conv2d_22[0][0]                  
__________________________________________________________________________________________________
add_5 (Add)                     (None, 7, 7, 256)    0           batch_normalization_30[0][0]     
                                                                 batch_normalization_33[0][0]     
__________________________________________________________________________________________________
conv2d_23 (Conv2D)              (None, 7, 7, 512)    131072      add_5[0][0]                      
__________________________________________________________________________________________________
batch_normalization_34 (BatchNo (None, 7, 7, 512)    2048        conv2d_23[0][0]                  
__________________________________________________________________________________________________
re_lu_23 (ReLU)                 (None, 7, 7, 512)    0           batch_normalization_34[0][0]     
__________________________________________________________________________________________________
global_average_pooling2d (Globa (None, 512)          0           re_lu_23[0][0]                   
__________________________________________________________________________________________________
dense (Dense)                   (None, 500)          256000      global_average_pooling2d[0][0]   
__________________________________________________________________________________________________
batch_normalization_35 (BatchNo (None, 500)          2000        dense[0][0]                      
__________________________________________________________________________________________________
re_lu_24 (ReLU)                 (None, 500)          0           batch_normalization_35[0][0]     
__________________________________________________________________________________________________
presence (Dense)                (None, 1)            501         re_lu_24[0][0]                   
__________________________________________________________________________________________________
coordinates (Dense)             (None, 4)            2004        re_lu_24[0][0]                   
==================================================================================================
Total params: 2,591,433
Trainable params: 2,559,297
Non-trainable params: 32,136
__________________________________________________________________________________________________
step1_mobilenetGAP_2
Epoch 1/10
2021-06-03 14:34:06.885354: I tensorflow/stream_executor/platform/default/dso_loader.cc:49] Successfully opened dynamic library libcublas.so.10
…
